…
li> <li>LayerNorm \uff1a \u505a\u5f52\u4e00\u5316\u64cd\u4f5c\uff0c\u52a0\u5feb\u6a21\u578b\u6536\u655b</li> <li>Dropout \uff1a \u4e3b\u8981\u662f\u4e3a\u4e86\u9632\u6b62\u6a21\u578b\u8fc7\u62df\u5408\uff0c\u901a\u8fc7\u5ffd\u7565\u4e00\u534a\u6570\u91cf\u7684\u7279\u5f81\u68c0\u6d4b\u5668\uff08\u8ba9\u4e00\u534a\u7684\u9690\u5c42\u8282\u70b9\u503c\u4e3a0\uff09\uff0c\u51cf\u5c11\u7279\u5f81\u68c0\u6d4b\u5668\uff08\u9690\u5c42\u8282\u70b9\uff09\u95f4\u7684\u76f8\u4e92\u4f5c\u7528</li> </ul> <pre><code>BertForQuestionAnswering(\n(bert): BertModel(\n(embeddings): BertEmbeddings(\n(word_embeddings): Embedding(30522, 768, padding_idx=0)\n(position_embeddings): Embedding(512, 768)\n(token_type_embeddings): Embedding(2, 768)\n(LayerNorm): LayerNorm((768,), eps=1e-12, elementwise_affine=True)\n(dropout): Dropout(p=0.1, inplace=False)\n)\n(encoder): BertEncoder(\n(layer): ModuleList(\n(0-11): 12 x BertLayer(\n(attention): BertAttention(\n(self): BertSelfAttention(\n(query): Linear(in_features=768, out_features=768, bias=True)\n(key): Linear(in_features=768, out_features=768, bias=True)\n(value): Linear(in_features=768, out_features=768, bias=True)\n(dropout): Dropout(p=0.1, inplace=False)\n)\n(output): BertSelfOutput(\n(dense): Linear(in_features=768, out_features=768, bias=True)\n(LayerNorm): LayerNorm((768,), eps=1e-12, elementwise_affine=True)\n(dropout): Dropout(p=0.1, inplace=False)\n)\n)\n(intermediate): BertIntermediate(\n(dense): Linear(in_features=768, out_features=3072, bias=True)\n(intermediate_act_fn): GELUActivation()\n)\n(output): BertOutput(\n(dense): Linear(in_features=3072, out_features=768, bias=True)\n(LayerNorm): LayerNorm((768,), eps=1e-12, elementwise_affine=True)\n(dropout): Dropout(p=0.1, inplace=False)\n)\n)\n)\n)\n)\n(qa_outputs): Linear(in_features=768, out_features=2, bias=True)\n)\n</code></pre> <ol> <li>\u5229\u7528\u683c\u5f0f\u5316\u597d\u7684\u6d4b\u8bd5\u6570\u636e\u96c6\uff0c\u8bad\u7ec3\u6a21\u578b\u83b7\u5f97\u5bf9\u5e94\u7684weight\u548cbias\u4fdd\u5b58\u4e3a\u6587\u4ef6</li> </ol> <pre><code>import torch\nfrom transformers import BertForQuestionAnswering, AdamW\nfrom torch.utils.data import DataLoader, RandomSampler, 
…
